mod-minimum-1.inp.pth (torch, 688499 bytes, 32 tensors)

encoder.0.partial_conv.input_conv.weight f4 [18, 1, 7, 7]
-0.016940527 0.07108953 -0.15986462 0.012819506 0.13553652 -0.057879515 0.32650158 -0.32426313
-0.012124095 -0.06353188 0.048811078 -0.04662122 0.18325807 0.04106403 0.114283025 0.08242867
0.051115748 0.18672168 -0.10559416 -0.3349133 0.21110941 0.10374986 -0.035474192 0.008816757
0.11209399 0.45461655 0.37639546 -0.24329275 0.19986287 0.090994805 0.49032888 -0.03146306
-0.097449616 -0.06042938 -0.07214361 0.07069541 0.0065651853 -0.01515833 0.08506326 -0.1769749
-0.056159027 0.02725245 0.02640456 0.1367424 -0.19508968 0.011300105 0.1315324 0.16419034
-0.093370356 0.44820237 -0.07475964 -0.029267726 0.13152976 -0.47023565 0.25727925 -0.05044153
0.19235456 -0.2586548 -0.33116633 0.16916668 -0.16747843 -0.106822215 0.27520192 0.27720293
-0.013428606 -0.083675645 0.086869694 -0.050375924 -0.3197396 0.2836027 -0.2068146 0.22955997
0.10521567 -0.002301247 -0.22770199 -0.097577475 -0.12676075 -0.15781221 -0.18194023 -0.37966487
0.039496493 -0.03773829 -0.017229063 -0.14722547 0.40203834 0.07382049 -0.27947637 -0.033980936
0.06603773 0.0670695 0.05985134 -0.19739908 0.22359985 -0.0012491415 -0.14020231 -0.06292972
-0.1003436 -0.12280107 -0.095981225 -0.060974285 0.07780406 0.18407823 -0.051038522 0.008847063
-0.06544188 0.32837528 0.17210843 0.14274932 -0.25533068 0.25770256 -0.24901241 -0.18064307
-0.076321766 0.100556344 0.119230255 -0.0037617928 0.45443106 -0.06014938 -0.14326388 -0.53043216
-0.094381586 0.0072980192 0.032925658 0.080251254 0.0046496307 0.47725204 -0.16056447 0.03821475
-0.024325507 0.06359175 0.49781847 -0.21822938 0.33587217 -0.19573836 -0.10293467 -0.14395079
-0.2064255 -0.24066593 0.091993995 0.097025275 0.040039666 -0.0071671586 -0.016235664 -0.2342894
-0.16040602 0.21144506 0.26098862 0.0315068 0.23899159 -0.5736305 -0.078227594 -0.25171947
-0.08279364 -0.0077412226 -0.105549924 0.017276151 -0.23342562 -0.06221957 -0.08073451 0.54230464
-0.09116297 -0.17276123 -0.2868385 -0.29181427 0.08023443 -0.014782987 -0.31270376 -0.023384403
0.004544231 0.18470079 -0.0022215282 -0.16718023 0.01836666 -0.03476372 -0.11087843 -0.20243831
-0.13299775 -0.3528523 -0.21187009 0.06469948 0.457204 -0.25929737 0.47774398 0.3046106
-0.06959161 -0.19694632 -0.3197861 -0.13949044 0.12765016 -0.003952802 -0.06560488 0.4021274
0.06725241 0.115214735 0.039335098 0.317963 0.23193596 -0.14207354 0.101091586 0.3584719
0.12258748 -0.22854725 -0.30159304 -0.13288982 -0.08690013 0.2419369 -0.12575781 0.4090212
-0.37025526 -0.102894105 -0.0805399 0.04616293 0.23823817 0.28024727 -0.10973895 0.054023962
-0.1253746 0.08119409 -0.08895497 -0.111829214 0.5408605 0.08121072 -0.037066273 -0.089092374
0.27250674 0.2272848 -0.069239736 0.29457504 0.387988 -0.063657016 -0.19828375 0.23095028
-0.24257994 -0.056001868 -0.18196468 -0.012107292 0.040932827 -0.042193618 -0.09845276 -0.34463573
-0.15375675 -0.36178106 0.07009338 0.11029322 0.18347849 0.3417892 -0.2796793 0.3454486
0.22813058 0.09939217 -0.013056269 -0.18845293 -0.2471634 0.15158486 0.01038246 0.14922814
00000000: dcc6 8abc 6397 913d 8db3 23be e808 523c
00000010: 16ca 0a3e 1213 6dbd 372b a73e d105 a6be
00000020: 24a4 46bc 011d 82bd 20ee 473d e4f5 3ebd
00000030: 01a8 3b3e c232 283d 380d ea3d 5dd0 a83d
00000040: bf5e 513d f833 3f3e c041 d8bd c279 abbe
00000050: 112d 583e ce7a d43d 634d 11bd 2974 103c
00000060: 8991 e53d 80c3 e83e e8b6 c03e bc21 79be
00000070: daa8 4c3e 7c5b ba3d 630c fb3e 69df 00bd
00000080: aa93 c7bd cc84 77bd 07c0 93bd c1c8 903d
00000090: c420 d73b a55a 78bc a535 ae3d e838 35be
000000a0: 0207 66bd 8840 df3c 604e d83c 3306 0c3e
000000b0: 97c5 47be 1324 393c 6eb0 063e 8321 283e
000000c0: f538 bfbd c87a e53e 951b 99bd dfc2 efbc
000000d0: bdaf 063e bac2 f0be 1bba 833e c79b 4ebd
000000e0: 98f8 443e 676e 84be a28e a9be 083a 2d3e
000000f0: 777f 2bbe 9bc5 dabd 44e7 8c3e 8bed 8d3e
00000100: a803 5cbc 235e abbd bde8 b13d fc56 4ebd
00000110: e9b4 a3be 6034 913e 35c7 53be c511 6b3e
00000120: 507b d73d 85d0 16bb b62a 69be b3d6 c7bd
00000130: 92cd 01be 8699 21be 8a4e 3abe 6f63 c2be
00000140: 13c7 213d 7793 1abd f723 8dbc 46c2 16be
00000150: f8d7 cd3e 322f 973d 8717 8fbe 982f 0bbd
00000160: ca3e 873d bc5b 893d ae26 753d fc22 4abe
00000170: 5cf7 643e 3cba a3ba 3291 0fbe 4ce1 80bd
00000180: f280 cdbd 217f fbbd ce91 c4bd 2cc0 79bd
00000190: bc57 9f3d 017f 3c3e c50d 51bd 46f3 103c
000001a0: 6406 86bd ce20 a83e 313d 303e e12c 123e
000001b0: b4ba 82be 97f1 833e 1cfd 7ebe 7ffa 38be
000001c0: 964e 9cbd 7cf0 cd3d fe2e f43d 6988 76bb
000001d0: 30ab e83e 325f 76bd c4b3 12be 67ca 07bf
000001e0: 224b c1bd 3924 ef3b 0edd 063d c55a a43d
000001f0: ee5b 983b 615a f43e 036b 24be 1287 1c3d
00000200: 4946 c7bc 643c 823d 10e2 fe3e 8677 5fbe
00000210: 70f7 ab3e a36f 48be 6acf d2bd d667 13be
00000220: 3561 53be 2171 76be 5967 bc3d 30b5 c63d
00000230: a200 243d 7cda eabb a800 85bc 8fe9 6fbe
00000240: 7a41 24be 0e85 583e 4da0 853e 460d 013d
00000250: 36ba 743e 73d9 12bf ca35 a0bd 60e1 80be
00000260: b68f a9bd 15aa fdbb 8f2a d8bd b786 8d3c
00000270: 2007 6fbe f3d9 7ebd 2358 a5bd 7ad4 0a3f
00000280: a7b3 babd 52e8 30be 7fdc 92be ae68 95be
00000290: f351 a43d 5734 72bc b51a a0be a690 bfbc
000002a0: c6e7 943b 3422 3d3e 0f97 11bb 4b31 2bbe
000002b0: ae75 963c 6764 0ebd 3b14 e3bd fd4b 4fbe
000002c0: 9030 08be 0fa9 b4be 79f4 58be 2981 843d
000002d0: a516 ea3e a0c2 84be dc9a f43e ecf5 9b3e
000002e0: 0c86 8ebd 4cac 49be 01bb a3be 95d6 0ebe
000002f0: b9b6 023e 8286 81bb da5b 86bd a4e3 cd3e
00000300: a2bb 893d b4f5 eb3d d71d 213d 0ccc a23e
00000310: 9f80 6d3e ba7b 11be 1b09 cf3d a189 b73e
00000320: 250f fb3d 4a08 6abe 676a 9abe 4514 08be
00000330: b2f8 b1bd 4fbe 773e a8c6 00be 3a6b d13e
00000340: 1992 bdbe 25ba d2bd 1af2 a4bd 5715 3d3d
00000350: b5f4 733e 927c 8f3e d1be e0bd 3b48 5d3d
00000360: 3362 00be 1649 a63d 062e b6bd b706 e5bd
00000370: d575 0a3f ce51 a63d ced2 17bd 1076 b6bd
00000380: 0186 8b3e 59bd 683e 90cd 8dbd 8ad2 963e
00000390: 5da6 c63e 9c5e 82bd e50a 4bbe 3b7e 6c3e
000003a0: e066 78be 3762 65bd f354 3abe aa5d 46bc
000003b0: 2ea9 273d 37d3 2cbd 9aa1 c9bd 1874 b0be
000003c0: 6972 1dbe 5e3b b9be 1e8d 8f3d 69e1 e13d
000003d0: c9e1 3b3e fefe ae3e 2032 8fbe a4de b03e
000003e0: 109b 693e 1f8e cb3d f6e9 55bc cef9 40be
000003f0: 6718 7dbe 1039 1b3e 321b 2a3c 43cf 183e

encoder.0.partial_conv.mask_conv.weight f4 [18, 1, 7, 7]
1.0 1.0 1.0 1.0 1.0 1.0 1.0 1.0
1.0 1.0 1.0 1.0 1.0 1.0 1.0 1.0
1.0 1.0 1.0 1.0 1.0 1.0 1.0 1.0
1.0 1.0 1.0 1.0 1.0 1.0 1.0 1.0
1.0 1.0 1.0 1.0 1.0 1.0 1.0 1.0
1.0 1.0 1.0 1.0 1.0 1.0 1.0 1.0
1.0 1.0 1.0 1.0 1.0 1.0 1.0 1.0
1.0 1.0 1.0 1.0 1.0 1.0 1.0 1.0
1.0 1.0 1.0 1.0 1.0 1.0 1.0 1.0
1.0 1.0 1.0 1.0 1.0 1.0 1.0 1.0
1.0 1.0 1.0 1.0 1.0 1.0 1.0 1.0
1.0 1.0 1.0 1.0 1.0 1.0 1.0 1.0
1.0 1.0 1.0 1.0 1.0 1.0 1.0 1.0
1.0 1.0 1.0 1.0 1.0 1.0 1.0 1.0
1.0 1.0 1.0 1.0 1.0 1.0 1.0 1.0
1.0 1.0 1.0 1.0 1.0 1.0 1.0 1.0
1.0 1.0 1.0 1.0 1.0 1.0 1.0 1.0
1.0 1.0 1.0 1.0 1.0 1.0 1.0 1.0
1.0 1.0 1.0 1.0 1.0 1.0 1.0 1.0
1.0 1.0 1.0 1.0 1.0 1.0 1.0 1.0
1.0 1.0 1.0 1.0 1.0 1.0 1.0 1.0
1.0 1.0 1.0 1.0 1.0 1.0 1.0 1.0
1.0 1.0 1.0 1.0 1.0 1.0 1.0 1.0
1.0 1.0 1.0 1.0 1.0 1.0 1.0 1.0
1.0 1.0 1.0 1.0 1.0 1.0 1.0 1.0
1.0 1.0 1.0 1.0 1.0 1.0 1.0 1.0
1.0 1.0 1.0 1.0 1.0 1.0 1.0 1.0
1.0 1.0 1.0 1.0 1.0 1.0 1.0 1.0
1.0 1.0 1.0 1.0 1.0 1.0 1.0 1.0
1.0 1.0 1.0 1.0 1.0 1.0 1.0 1.0
1.0 1.0 1.0 1.0 1.0 1.0 1.0 1.0
1.0 1.0 1.0 1.0 1.0 1.0 1.0 1.0
00000000: 0000 803f 0000 803f 0000 803f 0000 803f
00000010: 0000 803f 0000 803f 0000 803f 0000 803f
00000020: 0000 803f 0000 803f 0000 803f 0000 803f
00000030: 0000 803f 0000 803f 0000 803f 0000 803f
00000040: 0000 803f 0000 803f 0000 803f 0000 803f
00000050: 0000 803f 0000 803f 0000 803f 0000 803f
00000060: 0000 803f 0000 803f 0000 803f 0000 803f
00000070: 0000 803f 0000 803f 0000 803f 0000 803f
00000080: 0000 803f 0000 803f 0000 803f 0000 803f
00000090: 0000 803f 0000 803f 0000 803f 0000 803f
000000a0: 0000 803f 0000 803f 0000 803f 0000 803f
000000b0: 0000 803f 0000 803f 0000 803f 0000 803f
000000c0: 0000 803f 0000 803f 0000 803f 0000 803f
000000d0: 0000 803f 0000 803f 0000 803f 0000 803f
000000e0: 0000 803f 0000 803f 0000 803f 0000 803f
000000f0: 0000 803f 0000 803f 0000 803f 0000 803f
00000100: 0000 803f 0000 803f 0000 803f 0000 803f
00000110: 0000 803f 0000 803f 0000 803f 0000 803f
00000120: 0000 803f 0000 803f 0000 803f 0000 803f
00000130: 0000 803f 0000 803f 0000 803f 0000 803f
00000140: 0000 803f 0000 803f 0000 803f 0000 803f
00000150: 0000 803f 0000 803f 0000 803f 0000 803f
00000160: 0000 803f 0000 803f 0000 803f 0000 803f
00000170: 0000 803f 0000 803f 0000 803f 0000 803f
00000180: 0000 803f 0000 803f 0000 803f 0000 803f
00000190: 0000 803f 0000 803f 0000 803f 0000 803f
000001a0: 0000 803f 0000 803f 0000 803f 0000 803f
000001b0: 0000 803f 0000 803f 0000 803f 0000 803f
000001c0: 0000 803f 0000 803f 0000 803f 0000 803f
000001d0: 0000 803f 0000 803f 0000 803f 0000 803f
000001e0: 0000 803f 0000 803f 0000 803f 0000 803f
000001f0: 0000 803f 0000 803f 0000 803f 0000 803f
00000200: 0000 803f 0000 803f 0000 803f 0000 803f
00000210: 0000 803f 0000 803f 0000 803f 0000 803f
00000220: 0000 803f 0000 803f 0000 803f 0000 803f
00000230: 0000 803f 0000 803f 0000 803f 0000 803f
00000240: 0000 803f 0000 803f 0000 803f 0000 803f
00000250: 0000 803f 0000 803f 0000 803f 0000 803f
00000260: 0000 803f 0000 803f 0000 803f 0000 803f
00000270: 0000 803f 0000 803f 0000 803f 0000 803f
00000280: 0000 803f 0000 803f 0000 803f 0000 803f
00000290: 0000 803f 0000 803f 0000 803f 0000 803f
000002a0: 0000 803f 0000 803f 0000 803f 0000 803f
000002b0: 0000 803f 0000 803f 0000 803f 0000 803f
000002c0: 0000 803f 0000 803f 0000 803f 0000 803f
000002d0: 0000 803f 0000 803f 0000 803f 0000 803f
000002e0: 0000 803f 0000 803f 0000 803f 0000 803f
000002f0: 0000 803f 0000 803f 0000 803f 0000 803f
00000300: 0000 803f 0000 803f 0000 803f 0000 803f
00000310: 0000 803f 0000 803f 0000 803f 0000 803f
00000320: 0000 803f 0000 803f 0000 803f 0000 803f
00000330: 0000 803f 0000 803f 0000 803f 0000 803f
00000340: 0000 803f 0000 803f 0000 803f 0000 803f
00000350: 0000 803f 0000 803f 0000 803f 0000 803f
00000360: 0000 803f 0000 803f 0000 803f 0000 803f
00000370: 0000 803f 0000 803f 0000 803f 0000 803f
00000380: 0000 803f 0000 803f 0000 803f 0000 803f
00000390: 0000 803f 0000 803f 0000 803f 0000 803f
000003a0: 0000 803f 0000 803f 0000 803f 0000 803f
000003b0: 0000 803f 0000 803f 0000 803f 0000 803f
000003c0: 0000 803f 0000 803f 0000 803f 0000 803f
000003d0: 0000 803f 0000 803f 0000 803f 0000 803f
000003e0: 0000 803f 0000 803f 0000 803f 0000 803f
000003f0: 0000 803f 0000 803f 0000 803f 0000 803f

encoder.0.partial_conv.bn.weight f4 [18]
1.0012107 1.001241 0.9989813 1.0016952 1.0012788 1.0009391 0.99963653 1.001603
1.0016165 1.0011232 0.9989813 1.0003947 0.9991129 0.99901056 1.0015346 1.0019224
1.0016134 0.9995436
00000000: ac27 803f aa28 803f 3dbd 7f3f 8c37 803f
00000010: e729 803f c61e 803f 2ee8 7f3f 8734 803f
00000020: f834 803f ce24 803f 3dbd 7f3f ef0c 803f
00000030: ddc5 7f3f 28bf 7f3f 4932 803f fe3e 803f
00000040: de34 803f 17e2 7f3f

encoder.0.partial_conv.bn.bias f4 [18]
0.00016409019 0.0016145105 0.0002147961 0.0019321155 0.001020342 0.0016014104 0.0009099244 0.0009857351
0.0009930435 0.0012999976 0.00074091204 -0.0012982719 0.0010643997 -0.00026394147 0.0019494285 0.0018523696
0.0013314821 -0.0003510064
00000000: a00f 2c39 fc9d d33a e43a 6139 0a3f fd3a
00000010: ffbc 853a 6be6 d13a fe87 6e3a c833 813a
00000020: 0329 823a ae64 aa3a c439 423a c72a aaba
00000030: 5483 8b3a a061 8ab9 f783 ff3a 36cb f23a
00000040: 2085 ae3a 4807 b8b9

encoder.0.partial_conv.bn.running_mean f4 [18]
-0.002788145 0.00088950037 -3.843644e-05 0.0020780535 -0.0004940622 -0.0007900451 0.0049184556 -0.0049145212
-0.00095505436 5.4667373e-05 -0.0004935055 0.0015605186 0.0018795491 0.003899289 -0.0016490233 -0.00014297121
-0.0018990638 0.0034879593
00000000: 50b9 36bb 5c2d 693a d036 21b8 f42f 083b
00000010: f483 01ba 071b 4fba ff2a a13b fe09 a1bb
00000020: 9d5c 7aba a54a 6538 985e 01ba 518a cc3a
00000030: 345b f63a 378b 7f3b 0a24 d8ba 8bea 15b9
00000040: 02ea f8ba 3f96 643b

encoder.0.partial_conv.bn.running_var f4 [18]
0.35359713 0.35753575 0.3545178 0.3584978 0.3561112 0.3554361 0.355566 0.3584082
0.35416377 0.35099262 0.3561728 0.36279884 0.35776395 0.35813764 0.3636354 0.35424313
0.35332644 0.3548115
00000000: af0a b53e ed0e b73e 5b83 b53e 068d b73e
00000010: 3554 b63e b8fb b53e bf0c b63e 4881 b73e
00000020: f454 b53e 4eb5 b33e 485c b63e c5c0 b93e
00000030: d62c b73e d15d b73e 6b2e ba3e 5b5f b53e
00000040: 34e7 b43e daa9 b53e

encoder.1.partial_conv.input_conv.weight f4 [36, 18, 5, 5]
-0.006148557 0.023391528 -0.051765684 0.0041500665 0.04516617 -0.020283232 0.107395835 -0.106875695
-0.004523831 -0.021052282 0.016813686 -0.0147827035 0.060405213 0.01356967 0.039136775 0.027282357
0.016035091 0.06107447 -0.033743694 -0.11012645 0.07095847 0.035702247 -0.01198451 0.003875096
0.037314333 0.15050137 0.12368358 -0.08128025 0.065330826 0.030860873 0.16240561 -0.011649254
-0.03349582 -0.019507254 -0.022316683 0.024783926 0.0016389679 -0.0046154796 0.029329356 -0.057497304
-0.01764641 0.009165851 0.0077398587 0.04648621 -0.0643202 0.004870298 0.042680584 0.052993055
-0.030002516 0.14885679 -0.026726548 -0.011563006 0.041496195 -0.15478076 0.08447651 -0.016671656
0.06217407 -0.08744377 -0.109958604 0.05384249 -0.05518316 -0.034583658 0.08995247 0.09076876
-0.004787769 -0.02916608 0.029209547 -0.016469827 -0.104208626 0.09178371 -0.06830883 0.0747567
0.03463924 -0.0010747142 -0.07442654 -0.033308957 -0.04173095 -0.053407796 -0.061564445 -0.12739013
0.012460097 -0.012414807 -0.007952681 -0.05063292 0.13199553 0.024530755 -0.09236689 -0.010630252
0.02226294 0.02117171 0.01920176 -0.06618718 0.073708974 0.00014030264 -0.046093464 -0.019949324
-0.032604985 -0.0395129 -0.03036855 -0.01974183 0.025320068 0.059605025 -0.018755876 0.0031301226
-0.02221857 0.1064816 0.055352602 0.04497493 -0.08318812 0.083877794 -0.08201269 -0.05929691
-0.025843572 0.032964468 0.039939635 -0.0022990946 0.14905307 -0.020324402 -0.047342148 -0.17556061
-0.030349314 0.0005969737 0.011041577 0.027278112 0.0015286072 0.15765077 -0.0545531 0.010823406
-0.0091729015 0.021274896 0.16284518 -0.0740721 0.10901591 -0.06488889 -0.03406119 -0.04634998
-0.06813418 -0.078533754 0.031582948 0.03234128 0.013340577 -0.0033244805 -0.004791412 -0.07509958
-0.052581903 0.069667704 0.08617368 0.011756153 0.0799011 -0.19006313 -0.025680408 -0.08334645
-0.028911913 -0.003344762 -0.033786595 0.0048760003 -0.07878367 -0.02095891 -0.028011203 0.17812681
-0.030581245 -0.05809638 -0.093969256 -0.09714207 0.026858421 -0.004215044 -0.10387108 -0.009480611
0.0017576045 0.062249385 0.00059098355 -0.05467721 0.0067285597 -0.011920128 -0.036111124 -0.06801134
-0.044626843 -0.117830366 -0.06911965 0.022169277 0.15022628 -0.08755873 0.15599167 0.09986985
-0.022257227 -0.064807326 -0.10521275 -0.04484051 0.04169683 -0.0014236824 -0.023439169 0.1328322
0.02215589 0.039460998 0.012581101 0.10552296 0.07747249 -0.04581436 0.03374648 0.11878015
0.039850894 -0.07697611 -0.10109334 -0.044245515 -0.027010435 0.07905263 -0.042178955 0.13447359
-0.12385549 -0.034661315 -0.02688756 0.016450869 0.07849449 0.09128217 -0.03559368 0.017778264
-0.04123756 0.027563406 -0.027418302 -0.037424 0.18037558 0.02786163 -0.01393265 -0.029126376
0.09057801 0.075426064 -0.023245826 0.095997825 0.12916252 -0.019804351 -0.066703565 0.07521749
-0.079659775 -0.019211408 -0.06129205 -0.0032612367 0.012707631 -0.012902564 -0.032261595 -0.11461839
-0.050200135 -0.12014118 0.022249844 0.03679857 0.060861018 0.11440343 -0.09217762 0.11408752
0.074204475 0.031721275 -0.00533031 -0.06437036 -0.08334579 0.04957193 0.0030869266 0.04976942
00000000: d679 c9bb 979f bf3c 4108 54bd 48fd 873b
00000010: 2900 393d 0529 a6bc 59f2 db3d a5e1 dabd
00000020: a53c 94bb d675 acbc dbbc 893c 2733 72bc
00000030: 756b 773d 5253 5e3c e24d 203d 407f df3c
00000040: 065c 833c 3929 7a3d d436 0abd fa89 e1bd
00000050: ad52 913d 853c 123d ae5a 44bc 53f5 7d3b
00000060: ead6 183d 081d 1a3e d14d fd3d 4276 a6bd
00000070: 2bcc 853d f1cf fc3c a84d 263e 83dc 3ebc
00000080: ea32 09bd adcd 9fbc 7ad1 b6bc a907 cb3c
00000090: a3d2 d63a 733d 97bb 1e44 f03c 4b82 6bbd
000000a0: 348f 90bc 5e2c 163c a49e fd3b 5368 3e3d
000000b0: 4fba 83bd 0597 9f3b d6d1 2e3d 3f0f 593d
000000c0: d6c7 f5bc ea6d 183e a2f1 dabc c372 3dbc
000000d0: eaf7 293d d97e 1ebe 0502 ad3d ff92 88bc
000000e0: 3daa 7e3d b815 b3bd fa31 e1bd f189 5c3d
000000f0: bd07 62bd 98a7 0dbd 0039 b83d f9e4 b93d
00000100: b8e2 9cbb b4ed eebc dc48 ef3c bbeb 86bc
00000110: 556b d5bd 19f9 bb3d 80e5 8bbd 0a1a 993d
00000120: e0e1 0d3d 6ddd 8cba f16c 98bd f96e 08bd
00000130: 13ee 2abd 22c2 5abd 002b 7cbd 8f72 02be
00000140: 6f25 4c3c 7a67 4bbc f64b 02bc 7764 4fbd
00000150: d629 073e b9f4 c83c da2a bdbd 822a 2ebc
00000160: c560 b63c 4b70 ad3c 024d 9d3c 258d 87bd
00000170: bbf4 963d 341e 1339 80cc 3cbd c46c a3bc
00000180: ce8c 05bd 47d8 21bd 77c7 f8bc 9eb9 a1bc
00000190: 086c cf3c 6624 743d eca5 99bc be22 4d3b
000001a0: b803 b6bc 0613 da3d 69b9 623d a237 383d
000001b0: 885e aabd 1fc8 ab3d 45f6 a7bd 51e1 72bd
000001c0: e6b5 d3bc c005 073d be97 233d 68ac 16bb
000001d0: 5ea1 183e 5c7f a6bc d7e9 41bd 29c6 33be
000001e0: 209f f8bc 3a7e 1c3a bbe7 343c 5976 df3c
000001f0: 8c5b c83a 346f 213e 1273 5fbd a854 313c
00000200: f049 16bc b148 ae3c e3c0 263e 1db3 97bd
00000210: bc43 df3d 77e4 84bd bf83 0bbd 7ad9 3dbd
00000220: ef89 8bbd 4ed6 a0bd 1f5d 013d 4a78 043d
00000230: 6f92 5a3c 87df 59bb 4701 9dbb cfcd 99bd
00000240: 1f60 57bd f1ad 8e3d d47b b03d e19c 403c
00000250: 30a3 a33d e99f 42be b85f d2bc 8bb1 aabd
00000260: add8 ecbc cb33 5bbb d063 0abd dbc6 9f3b
00000270: 5559 a1bd 05b2 abbc c077 e5bc e066 363e
00000280: 8585 fabc 78f6 6dbd f472 c0bd 6cf2 c6bd
00000290: 3106 dc3c 5a1e 8abb 5cba d4bd 9154 1bbc
000002a0: 6c5f e63a 36f9 7e3d 3cec 1a3a 36f5 5fbd
000002b0: 407b dc3b a44c 43bc 42e9 13bd 8849 8bbd
000002c0: a3ca 36bd 0c51 f1bd 9a8e 8dbd 589c b53c
000002d0: ebd4 193e fe51 b3bd 48bc 1f3e 9088 cc3d
000002e0: ca54 b6bc b4b9 84bd c879 d7bd afaa 37bd
000002f0: 4cca 2a3d db9a baba 8003 c0bc 2a05 083e
00000300: 4580 b53c dba1 213d f620 4e3c 6c1c d83d
00000310: e6a9 9e3d d7a7 3bbd c039 0a3d 0243 f33d
00000320: b13a 233d a7a5 9dbd 060a cfbd c93a 35bd
00000330: fd44 ddbc 58e6 a13d d7c3 2cbd 72b3 093e
00000340: f2a7 fdbd 06f9 0dbd 4d43 dcbc f9c3 863c
00000350: b8c1 a03d 25f2 ba3d aeca 11bd b9a3 913c
00000360: b7e8 28bd a7cc e13c 599c e0bc e949 19bd
00000370: 60b4 383e 133e e43c c545 64bc 709a eebc
00000380: f780 b93d fb78 9a3d 086e bebc 829a c43d
00000390: 2e43 043e bc3c a2bc e19b 88bd a10b 9a3d
000003a0: aa24 a3bd 3e61 9dbc 5f0d 7bbd 79ba 55bb
000003b0: ab33 503c 4765 53bc bc24 04bd 0cbd eabd
000003c0: a89e 4dbd 940c f6bd 4e45 b63c 19ba 163d
000003d0: 6749 793d 584c ea3d 9fc7 bcbd b8a6 e93d
000003e0: 84f8 973d 2bee 013d e2a9 aebb 9bd4 83bd
000003f0: 33b1 aabd f00b 4b3d 094e 4a3b 05db 4b3d

encoder.1.partial_conv.mask_conv.weight f4 [36, 18, 5, 5]
1.0 1.0 1.0 1.0 1.0 1.0 1.0 1.0
1.0 1.0 1.0 1.0 1.0 1.0 1.0 1.0
1.0 1.0 1.0 1.0 1.0 1.0 1.0 1.0
1.0 1.0 1.0 1.0 1.0 1.0 1.0 1.0
1.0 1.0 1.0 1.0 1.0 1.0 1.0 1.0
1.0 1.0 1.0 1.0 1.0 1.0 1.0 1.0
1.0 1.0 1.0 1.0 1.0 1.0 1.0 1.0
1.0 1.0 1.0 1.0 1.0 1.0 1.0 1.0
1.0 1.0 1.0 1.0 1.0 1.0 1.0 1.0
1.0 1.0 1.0 1.0 1.0 1.0 1.0 1.0
1.0 1.0 1.0 1.0 1.0 1.0 1.0 1.0
1.0 1.0 1.0 1.0 1.0 1.0 1.0 1.0
1.0 1.0 1.0 1.0 1.0 1.0 1.0 1.0
1.0 1.0 1.0 1.0 1.0 1.0 1.0 1.0
1.0 1.0 1.0 1.0 1.0 1.0 1.0 1.0
1.0 1.0 1.0 1.0 1.0 1.0 1.0 1.0
1.0 1.0 1.0 1.0 1.0 1.0 1.0 1.0
1.0 1.0 1.0 1.0 1.0 1.0 1.0 1.0
1.0 1.0 1.0 1.0 1.0 1.0 1.0 1.0
1.0 1.0 1.0 1.0 1.0 1.0 1.0 1.0
1.0 1.0 1.0 1.0 1.0 1.0 1.0 1.0
1.0 1.0 1.0 1.0 1.0 1.0 1.0 1.0
1.0 1.0 1.0 1.0 1.0 1.0 1.0 1.0
1.0 1.0 1.0 1.0 1.0 1.0 1.0 1.0
1.0 1.0 1.0 1.0 1.0 1.0 1.0 1.0
1.0 1.0 1.0 1.0 1.0 1.0 1.0 1.0
1.0 1.0 1.0 1.0 1.0 1.0 1.0 1.0
1.0 1.0 1.0 1.0 1.0 1.0 1.0 1.0
1.0 1.0 1.0 1.0 1.0 1.0 1.0 1.0
1.0 1.0 1.0 1.0 1.0 1.0 1.0 1.0
1.0 1.0 1.0 1.0 1.0 1.0 1.0 1.0
1.0 1.0 1.0 1.0 1.0 1.0 1.0 1.0
00000000: 0000 803f 0000 803f 0000 803f 0000 803f
00000010: 0000 803f 0000 803f 0000 803f 0000 803f
00000020: 0000 803f 0000 803f 0000 803f 0000 803f
00000030: 0000 803f 0000 803f 0000 803f 0000 803f
00000040: 0000 803f 0000 803f 0000 803f 0000 803f
00000050: 0000 803f 0000 803f 0000 803f 0000 803f
00000060: 0000 803f 0000 803f 0000 803f 0000 803f
00000070: 0000 803f 0000 803f 0000 803f 0000 803f
00000080: 0000 803f 0000 803f 0000 803f 0000 803f
00000090: 0000 803f 0000 803f 0000 803f 0000 803f
000000a0: 0000 803f 0000 803f 0000 803f 0000 803f
000000b0: 0000 803f 0000 803f 0000 803f 0000 803f
000000c0: 0000 803f 0000 803f 0000 803f 0000 803f
000000d0: 0000 803f 0000 803f 0000 803f 0000 803f
000000e0: 0000 803f 0000 803f 0000 803f 0000 803f
000000f0: 0000 803f 0000 803f 0000 803f 0000 803f
00000100: 0000 803f 0000 803f 0000 803f 0000 803f
00000110: 0000 803f 0000 803f 0000 803f 0000 803f
00000120: 0000 803f 0000 803f 0000 803f 0000 803f
00000130: 0000 803f 0000 803f 0000 803f 0000 803f
00000140: 0000 803f 0000 803f 0000 803f 0000 803f
00000150: 0000 803f 0000 803f 0000 803f 0000 803f
00000160: 0000 803f 0000 803f 0000 803f 0000 803f
00000170: 0000 803f 0000 803f 0000 803f 0000 803f
00000180: 0000 803f 0000 803f 0000 803f 0000 803f
00000190: 0000 803f 0000 803f 0000 803f 0000 803f
000001a0: 0000 803f 0000 803f 0000 803f 0000 803f
000001b0: 0000 803f 0000 803f 0000 803f 0000 803f
000001c0: 0000 803f 0000 803f 0000 803f 0000 803f
000001d0: 0000 803f 0000 803f 0000 803f 0000 803f
000001e0: 0000 803f 0000 803f 0000 803f 0000 803f
000001f0: 0000 803f 0000 803f 0000 803f 0000 803f
00000200: 0000 803f 0000 803f 0000 803f 0000 803f
00000210: 0000 803f 0000 803f 0000 803f 0000 803f
00000220: 0000 803f 0000 803f 0000 803f 0000 803f
00000230: 0000 803f 0000 803f 0000 803f 0000 803f
00000240: 0000 803f 0000 803f 0000 803f 0000 803f
00000250: 0000 803f 0000 803f 0000 803f 0000 803f
00000260: 0000 803f 0000 803f 0000 803f 0000 803f
00000270: 0000 803f 0000 803f 0000 803f 0000 803f
00000280: 0000 803f 0000 803f 0000 803f 0000 803f
00000290: 0000 803f 0000 803f 0000 803f 0000 803f
000002a0: 0000 803f 0000 803f 0000 803f 0000 803f
000002b0: 0000 803f 0000 803f 0000 803f 0000 803f
000002c0: 0000 803f 0000 803f 0000 803f 0000 803f
000002d0: 0000 803f 0000 803f 0000 803f 0000 803f
000002e0: 0000 803f 0000 803f 0000 803f 0000 803f
000002f0: 0000 803f 0000 803f 0000 803f 0000 803f
00000300: 0000 803f 0000 803f 0000 803f 0000 803f
00000310: 0000 803f 0000 803f 0000 803f 0000 803f
00000320: 0000 803f 0000 803f 0000 803f 0000 803f
00000330: 0000 803f 0000 803f 0000 803f 0000 803f
00000340: 0000 803f 0000 803f 0000 803f 0000 803f
00000350: 0000 803f 0000 803f 0000 803f 0000 803f
00000360: 0000 803f 0000 803f 0000 803f 0000 803f
00000370: 0000 803f 0000 803f 0000 803f 0000 803f
00000380: 0000 803f 0000 803f 0000 803f 0000 803f
00000390: 0000 803f 0000 803f 0000 803f 0000 803f
000003a0: 0000 803f 0000 803f 0000 803f 0000 803f
000003b0: 0000 803f 0000 803f 0000 803f 0000 803f
000003c0: 0000 803f 0000 803f 0000 803f 0000 803f
000003d0: 0000 803f 0000 803f 0000 803f 0000 803f
000003e0: 0000 803f 0000 803f 0000 803f 0000 803f
000003f0: 0000 803f 0000 803f 0000 803f 0000 803f

encoder.1.partial_conv.bn.weight f4 [36]
0.99960846 1.0001817 0.9993988 1.0017608 1.0017618 1.0009519 0.9993334 1.0004175
1.0011997 0.99973667 1.0018257 1.00054 1.0004802 1.0018473 1.0015268 1.000837
1.0018005 0.9985697 0.9991206 1.0015249 0.99972326 1.0013866 1.0016105 0.99940217
1.0006367 1.0005878 1.0000703 1.00139 1.0017812 1.0018222 0.99964046 1.0005412
1.0011277 0.9987345 1.0007132 0.99904895
00000000: 57e6 7f3f f405 803f 9ad8 7f3f b339 803f
00000010: bb39 803f 311f 803f 50d4 7f3f ae0d 803f
00000020: 5027 803f beee 7f3f d33b 803f b211 803f
00000030: bc0f 803f 883c 803f 0832 803f 6d1b 803f
00000040: 003b 803f 44a2 7f3f 5ec6 7f3f f831 803f
00000050: dded 7f3f 702d 803f c634 803f d2d8 7f3f
00000060: dd14 803f 4313 803f 4e02 803f 8c2d 803f
00000070: 5e3a 803f b63b 803f 70e8 7f3f bc11 803f
00000080: f424 803f 10ad 7f3f 5f17 803f acc1 7f3f

encoder.1.partial_conv.bn.bias f4 [36]
8.864074e-05 -0.00022736209 -0.0011984704 0.0018523808 0.0018386379 0.0012598261 0.001495064 0.001196548
-0.00063046213 -0.0016801464 0.00024746882 -0.0012839881 -0.00052052975 0.0018849038 0.0005574026 0.0017107805
0.001608453 -0.00033898 0.0010785353 0.0011169716 0.0013960355 0.0014942731 0.0010554648 -0.0008409445
0.0001641057 0.00090193737 0.0006545022 0.0013558471 0.0013324408 0.0012591851 -0.00015339818 -0.0012470465
0.0016728105 0.00145312 0.00058211695 0.0013624135
00000000: a3e4 b938 0c68 6eb9 fe15 9dba 96cb f23a
00000010: 73fe f03a c020 a53a 06f6 c33a 7dd5 9c3a
00000020: 9945 25ba 5c38 dcba b4be 8139 7e4b a8ba
00000030: 2974 08ba e00e f73a a81e 123a 453c e03a
00000040: bad2 d23a 20b9 b1b9 a45d 8d3a 5967 923a
00000050: 2efb b63a 7cdb c33a 8657 8a3a d572 5cba
00000060: ca13 2c39 fe6f 6c3a e692 2b3a aeb6 b13a
00000070: 4ba5 ae3a 3e0b a53a 83d9 20b9 f073 a3ba
00000080: 3542 db3a 9e76 be3a 3599 183a 0393 b23a

encoder.1.partial_conv.bn.running_mean f4 [36]
0.0003550296 -6.3809704e-05 -0.00077574584 -0.0011819545 0.0001892777 -0.0005921033 0.0008688936 0.0006150304
-0.0003698178 0.0011786105 4.169765e-05 0.00032866374 0.00029439369 0.0012998797 -0.00035449845 -0.00015181424
0.0010718133 -0.0006236465 -0.00014436715 0.00063696573 0.00027015965 -0.00084059493 -0.00091037777 6.8998546e-05
0.00042792753 -0.00033995463 0.00048428198 0.00031750638 -0.00026941695 0.00012823645 0.0005552879 -0.0009082699
-0.0005814841 0.0003533521 0.0012940392 -0.00046703604
00000000: 4423 ba39 93d1 85b8 6c5b 4bba d0eb 9aba
00000010: d978 4639 6137 1bba 76c6 633a fe39 213a
00000020: 1be4 c1b9 9b7b 9a3a 83e4 2e38 8050 ac39
00000030: da58 9a39 ba60 aa3a fadb b9b9 5330 1fb9
00000040: 167c 8c3a 357c 23ba 4361 17b9 0cfa 263a
00000050: 37a4 8d39 5f5b 5cba 6ba6 6eba 50b3 9038
00000060: 765b e039 f03b b2b9 3ae7 fd39 fc76 a639
00000070: 8840 8db9 3677 0639 bd90 113a f618 6eba
00000080: bd6e 18ba 1e42 b939 c09c a93a 84dc f4b9

encoder.1.partial_conv.bn.running_var f4 [36]
0.34871846 0.3486912 0.3486924 0.34869915 0.34869978 0.34870157 0.34871748 0.34870481
0.34868973 0.34869358 0.34870622 0.34870276 0.34868714 0.3486994 0.3486905 0.34869733
0.34869474 0.3486905 0.34869334 0.34869486 0.34868795 0.3487236 0.3487068 0.34869415
0.3486921 0.3487002 0.34869966 0.3486896 0.34869155 0.3486972 0.34869725 0.34869173
0.34870616 0.3487031 0.34870714 0.34870335
00000000: 3a8b b23e a787 b23e cf87 b23e b288 b23e
00000010: c788 b23e 0389 b23e 198b b23e 7089 b23e
00000020: 7687 b23e f787 b23e 9f89 b23e 2b89 b23e
00000030: 1f87 b23e ba88 b23e 9087 b23e 7588 b23e
00000040: 1e88 b23e 9087 b23e ef87 b23e 2288 b23e
00000050: 3a87 b23e e68b b23e b389 b23e 0a88 b23e
00000060: c587 b23e d588 b23e c388 b23e 7187 b23e
00000070: b387 b23e 7088 b23e 7288 b23e b987 b23e
00000080: 9d89 b23e 3689 b23e be89 b23e 3f89 b23e

encoder.2.partial_conv.input_conv.weight f4 [72, 36, 3, 3]
-0.0049414067 0.029801438 -0.061245777 0.005934299 0.0531151 -0.021849768 0.12742189 -0.12468281
-0.004118118 -0.022667961 0.02081448 -0.016871162 0.07220244 0.016902158 0.046163566 0.03348338
0.021167396 0.07257164 -0.038961623 -0.12928642 0.08301891 0.042186674 -0.01193598 0.0046046036
0.04505318 0.1759651 0.14649367 -0.09279741 0.079068586 0.03718922 0.19170189 -0.012087401
-0.037614435 -0.024291987 -0.028811768 0.026278812 0.0041663116 -0.0039306106 0.035094593 -0.06736208
-0.020868938 0.010543742 0.008900804 0.054130748 -0.07671252 0.0065099197 0.052471973 0.065487914
-0.03531564 0.17417704 -0.030251453 -0.010189995 0.05247074 -0.18168661 0.10087514 -0.018220838
0.07515851 -0.100223765 -0.12876177 0.06643011 -0.06642394 -0.042029195 0.106390886 0.10960535
-0.0048578396 -0.032157626 0.034265503 -0.01997943 -0.123527706 0.10973963 -0.08202703 0.0899237
0.041604444 -0.0020175 -0.08770359 -0.037967455 -0.048661895 -0.06363808 -0.070273995 -0.1485851
0.013397984 -0.013083903 -0.006831416 -0.057264496 0.15689673 0.028182436 -0.10880328 -0.01157346
0.026209623 0.026268404 0.025330018 -0.07670231 0.0872553 0.00013508019 -0.053814713 -0.023732508
-0.039809402 -0.04786102 -0.038313672 -0.022142142 0.030437931 0.07352755 -0.019531032 0.0045910105
-0.025076486 0.12708674 0.06760075 0.054290257 -0.098974384 0.10111589 -0.09659229 -0.06871873
-0.029710798 0.041420728 0.04670827 -0.0014086022 0.17663515 -0.022643639 -0.055053893 -0.20600192
-0.03620399 0.0030779322 0.012479779 0.032347877 0.0020028513 0.18424226 -0.061022 0.014961346
-0.009016307 0.025442395 0.19452547 -0.085818045 0.13038467 -0.078038834 -0.04013424 -0.054442424
-0.07800842 -0.09178384 0.037345503 0.036600385 0.014655729 -0.004608105 -0.006538008 -0.090435
-0.0610584 0.084331535 0.10189154 0.012979844 0.09294927 -0.22322932 -0.031069504 -0.09760393
-0.033407692 -0.0021181602 -0.04060842 0.0071896953 -0.09031252 -0.024796378 -0.030196764 0.21208794
-0.034754004 -0.068054445 -0.11134747 -0.11248694 0.032649387 -0.004490787 -0.1196676 -0.009296811
0.0012198989 0.07264259 -9.286457e-05 -0.064641014 0.0074824 -0.012439633 -0.04273469 -0.07772575
-0.052384034 -0.13684848 -0.08183578 0.025984572 0.17881654 -0.10071538 0.18583994 0.11801222
-0.027909335 -0.07583512 -0.123537004 -0.05239037 0.04892972 -0.0011148228 -0.024660084 0.15737918
0.027479148 0.045409277 0.016481543 0.12267313 0.0889199 -0.056256324 0.040372893 0.14086865
0.049235165 -0.08991678 -0.117558435 -0.05257191 -0.03474169 0.09305383 -0.05009356 0.16040382
-0.14472325 -0.038984608 -0.03066181 0.019008515 0.09315536 0.10861658 -0.042703386 0.01887533
-0.047365315 0.0335128 -0.032856047 -0.041743327 0.21073844 0.03308076 -0.013577858 -0.03510073
0.10625674 0.09035775 -0.025507405 0.11614661 0.15272017 -0.02420004 -0.07797491 0.089266956
-0.09501823 -0.021431018 -0.06878245 -0.0034135578 0.016260564 -0.015501196 -0.037500292 -0.1336657
-0.058082458 -0.13936572 0.026861813 0.043723885 0.0712106 0.13319558 -0.1080595 0.13419807
0.08868585 0.039533112 -0.0056989165 -0.07343625 -0.09573691 0.06015081 0.0044520907 0.059703756
00000000: 86eb a1bb 2522 f43c dadc 7abd 8274 c23b
00000010: 388f 593d 49fe b2bc e27a 023e b359 ffbd
00000020: 47f1 86bb 29b2 b9bc 2183 aa3c 6435 8abc
00000030: dfde 933d 6576 8a3c 0216 3d3d de25 093d
00000040: 3f67 ad3c 71a0 943d 3996 1fbd a963 04be
00000050: d105 aa3d efcb 2c3d 218f 43bc 37e2 963b
00000060: af89 383d 3230 343e 7002 163e 920c bebd
00000070: b6ee a13d b953 183d 804d 443e 3c0a 46bc
00000080: 9811 1abd fdff c6bc a806 ecbc aa46 d73c
00000090: 8e85 883b 5acc 80bb 59bf 0f3d 21f5 89bd
000000a0: 56f5 aabc a9bf 2c3c aed4 113c 34b8 5d3d
000000b0: 741b 9dbd 2a51 d53b daec 563d 871e 863d
000000c0: 22a7 10bd 775b 323e e5d1 f7bc f0f3 26bc
000000d0: 8feb 563d 0e0c 3abe a097 ce3d de43 95bc
000000e0: b4ec 993d 1e42 cdbd 20da 03be 820c 883d
000000f0: 4609 88bd ce26 2cbd 77e3 d93d c578 e03d
00000100: 832e 9fbb b7b7 03bd fc59 0c3d e7ab a3bc
00000110: 18fc fcbd 2cbf e03d cafd a7bd eb29 b83d
00000120: 6c69 2a3d 0938 04bb f19d b3bd c383 1bbd
00000130: b251 47bd af54 82bd d0eb 8fbd b126 18be
00000140: 3883 5b3c de5d 56bc 12da dfbb 2d8e 6abd
00000150: 89a9 203e dade e63c 41d4 debd 9c9e 3dbc
00000160: 90b5 d63c d630 d73c e680 cf3c 1a16 9dbd
00000170: e8b2 b23d 50a4 0d39 d16c 5cbd ad6a c2bc
00000180: 2f0f 23bd eb09 44bd ccee 1cbd 7063 b5bc
00000190: f858 f93c 9d95 963d 8bff 9fbc 3070 963b
000001a0: 346d cdbc 0723 023e 4372 8a3d 765f 5e3d
000001b0: 15b3 cabd d915 cf3d 2ed2 c5bd 68bc 8cbd
000001c0: 0f64 f3bc c8a8 293d 2c51 3f3d d9a0 b8ba
000001d0: d8df 343e 277f b9bc 3180 61bd 2bf2 52be
000001e0: a34a 14bd 22b7 493b fd77 4c3c 357f 043d
000001f0: 4542 033b 01aa 3c3e 34f2 79bd 6f20 753c
00000200: 22b9 13bc 926c d03c af31 473e 5fc1 afbd
00000210: 8f83 053e d3d2 9fbd cd63 24bd 05ff 5ebd
00000220: e1c2 9fbd 2af9 bbbd 99f7 183d 49ea 153d
00000230: 951e 703c 96ff 96bb c93c d6bb fc35 b9bd
00000240: 5f18 7abd 03b6 ac3d 83ac d03d 69a9 543c
00000250: 305c be3d 3a96 64be 7985 febc 92e4 c7bd
00000260: 81d6 08bd d5d0 0abb 0455 26bd 8997 eb3b
00000270: c5f5 b8bd c621 cbbc 345f f7bc 952d 593e
00000280: 375a 0ebd 2160 8bbd 240a e4bd 8e5f e6bd
00000290: 5dbb 053d 7427 93bb 4914 f5bd a751 18bc
000002a0: 04e5 9f3a a3c5 943d 49c0 c2b8 8262 84bd
000002b0: ec2e f53b 9acf 4bbc 920a 2fbd ae2e 9fbd
000002c0: a490 56bd 0222 0cbe 8499 a7bd 99dd d43c
000002d0: af1b 373e dd43 cebd d34c 3e3e 64b0 f13d
000002e0: 1ea2 e4bc 724f 9bbd f800 fdbd 4997 56bd
000002f0: 886a 483d 3f1f 92ba f203 cabc 0228 213e
00000300: f31b e13c 14ff 393d 4d04 873c 0d3c fb3d
00000310: a31b b63d 086d 66bd 0c5e 253d df3f 103e
00000320: d0aa 493d 4a26 b8bd 7ac2 f0bd a555 57bd
00000330: 4d4d 0ebd 0293 be3d e82e 4dbd e640 243e
00000340: 5532 14be 53ae 1fbd 7a2e fbbc bfb7 9b3c
00000350: 3dc8 be3d 5f72 de3d bfe9 2ebd 70a0 9a3c
00000360: 2202 42bd b844 093d 1094 06bd 0dfb 2abd
00000370: d1cb 573e b17f 073d aa75 5ebc c8c5 0fbd
00000380: 229d d93d 7c0d b93d e8f4 d0bc 46de ed3d
00000390: ad62 1c3e 2a3f c6bc 4fb1 9fbd 98d1 b63d
000003a0: eb98 c2bd 1a90 afbc d0dd 8cbd ffb5 5fbb
000003b0: e034 853c baf8 7dbc e899 19bd a9df 08be
000003c0: dfe7 6dbd e3b5 0ebe 4e0d dc3c d117 333d
000003d0: ddd6 913d 6c64 083e 4d4e ddbd 386b 093e
000003e0: eda0 b53d 79ed 213d fabd babb bf65 96bd
000003f0: b711 c4bd b260 763d d8e2 913b ed8b 743d

encoder.2.partial_conv.mask_conv.weight f4 [72, 36, 3, 3]
1.0 1.0 1.0 1.0 1.0 1.0 1.0 1.0
1.0 1.0 1.0 1.0 1.0 1.0 1.0 1.0
1.0 1.0 1.0 1.0 1.0 1.0 1.0 1.0
1.0 1.0 1.0 1.0 1.0 1.0 1.0 1.0
1.0 1.0 1.0 1.0 1.0 1.0 1.0 1.0
1.0 1.0 1.0 1.0 1.0 1.0 1.0 1.0
1.0 1.0 1.0 1.0 1.0 1.0 1.0 1.0
1.0 1.0 1.0 1.0 1.0 1.0 1.0 1.0
1.0 1.0 1.0 1.0 1.0 1.0 1.0 1.0
1.0 1.0 1.0 1.0 1.0 1.0 1.0 1.0
1.0 1.0 1.0 1.0 1.0 1.0 1.0 1.0
1.0 1.0 1.0 1.0 1.0 1.0 1.0 1.0
1.0 1.0 1.0 1.0 1.0 1.0 1.0 1.0
1.0 1.0 1.0 1.0 1.0 1.0 1.0 1.0
1.0 1.0 1.0 1.0 1.0 1.0 1.0 1.0
1.0 1.0 1.0 1.0 1.0 1.0 1.0 1.0
1.0 1.0 1.0 1.0 1.0 1.0 1.0 1.0
1.0 1.0 1.0 1.0 1.0 1.0 1.0 1.0
1.0 1.0 1.0 1.0 1.0 1.0 1.0 1.0
1.0 1.0 1.0 1.0 1.0 1.0 1.0 1.0
1.0 1.0 1.0 1.0 1.0 1.0 1.0 1.0
1.0 1.0 1.0 1.0 1.0 1.0 1.0 1.0
1.0 1.0 1.0 1.0 1.0 1.0 1.0 1.0
1.0 1.0 1.0 1.0 1.0 1.0 1.0 1.0
1.0 1.0 1.0 1.0 1.0 1.0 1.0 1.0
1.0 1.0 1.0 1.0 1.0 1.0 1.0 1.0
1.0 1.0 1.0 1.0 1.0 1.0 1.0 1.0
1.0 1.0 1.0 1.0 1.0 1.0 1.0 1.0
1.0 1.0 1.0 1.0 1.0 1.0 1.0 1.0
1.0 1.0 1.0 1.0 1.0 1.0 1.0 1.0
1.0 1.0 1.0 1.0 1.0 1.0 1.0 1.0
1.0 1.0 1.0 1.0 1.0 1.0 1.0 1.0
00000000: 0000 803f 0000 803f 0000 803f 0000 803f
00000010: 0000 803f 0000 803f 0000 803f 0000 803f
00000020: 0000 803f 0000 803f 0000 803f 0000 803f
00000030: 0000 803f 0000 803f 0000 803f 0000 803f
00000040: 0000 803f 0000 803f 0000 803f 0000 803f
00000050: 0000 803f 0000 803f 0000 803f 0000 803f
00000060: 0000 803f 0000 803f 0000 803f 0000 803f
00000070: 0000 803f 0000 803f 0000 803f 0000 803f
00000080: 0000 803f 0000 803f 0000 803f 0000 803f
00000090: 0000 803f 0000 803f 0000 803f 0000 803f
000000a0: 0000 803f 0000 803f 0000 803f 0000 803f
000000b0: 0000 803f 0000 803f 0000 803f 0000 803f
000000c0: 0000 803f 0000 803f 0000 803f 0000 803f
000000d0: 0000 803f 0000 803f 0000 803f 0000 803f
000000e0: 0000 803f 0000 803f 0000 803f 0000 803f
000000f0: 0000 803f 0000 803f 0000 803f 0000 803f
00000100: 0000 803f 0000 803f 0000 803f 0000 803f
00000110: 0000 803f 0000 803f 0000 803f 0000 803f
00000120: 0000 803f 0000 803f 0000 803f 0000 803f
00000130: 0000 803f 0000 803f 0000 803f 0000 803f
00000140: 0000 803f 0000 803f 0000 803f 0000 803f
00000150: 0000 803f 0000 803f 0000 803f 0000 803f
00000160: 0000 803f 0000 803f 0000 803f 0000 803f
00000170: 0000 803f 0000 803f 0000 803f 0000 803f
00000180: 0000 803f 0000 803f 0000 803f 0000 803f
00000190: 0000 803f 0000 803f 0000 803f 0000 803f
000001a0: 0000 803f 0000 803f 0000 803f 0000 803f
000001b0: 0000 803f 0000 803f 0000 803f 0000 803f
000001c0: 0000 803f 0000 803f 0000 803f 0000 803f
000001d0: 0000 803f 0000 803f 0000 803f 0000 803f
000001e0: 0000 803f 0000 803f 0000 803f 0000 803f
000001f0: 0000 803f 0000 803f 0000 803f 0000 803f
00000200: 0000 803f 0000 803f 0000 803f 0000 803f
00000210: 0000 803f 0000 803f 0000 803f 0000 803f
00000220: 0000 803f 0000 803f 0000 803f 0000 803f
00000230: 0000 803f 0000 803f 0000 803f 0000 803f
00000240: 0000 803f 0000 803f 0000 803f 0000 803f
00000250: 0000 803f 0000 803f 0000 803f 0000 803f
00000260: 0000 803f 0000 803f 0000 803f 0000 803f
00000270: 0000 803f 0000 803f 0000 803f 0000 803f
00000280: 0000 803f 0000 803f 0000 803f 0000 803f
00000290: 0000 803f 0000 803f 0000 803f 0000 803f
000002a0: 0000 803f 0000 803f 0000 803f 0000 803f
000002b0: 0000 803f 0000 803f 0000 803f 0000 803f
000002c0: 0000 803f 0000 803f 0000 803f 0000 803f
000002d0: 0000 803f 0000 803f 0000 803f 0000 803f
000002e0: 0000 803f 0000 803f 0000 803f 0000 803f
000002f0: 0000 803f 0000 803f 0000 803f 0000 803f
00000300: 0000 803f 0000 803f 0000 803f 0000 803f
00000310: 0000 803f 0000 803f 0000 803f 0000 803f
00000320: 0000 803f 0000 803f 0000 803f 0000 803f
00000330: 0000 803f 0000 803f 0000 803f 0000 803f
00000340: 0000 803f 0000 803f 0000 803f 0000 803f
00000350: 0000 803f 0000 803f 0000 803f 0000 803f
00000360: 0000 803f 0000 803f 0000 803f 0000 803f
00000370: 0000 803f 0000 803f 0000 803f 0000 803f
00000380: 0000 803f 0000 803f 0000 803f 0000 803f
00000390: 0000 803f 0000 803f 0000 803f 0000 803f
000003a0: 0000 803f 0000 803f 0000 803f 0000 803f
000003b0: 0000 803f 0000 803f 0000 803f 0000 803f
000003c0: 0000 803f 0000 803f 0000 803f 0000 803f
000003d0: 0000 803f 0000 803f 0000 803f 0000 803f
000003e0: 0000 803f 0000 803f 0000 803f 0000 803f
000003f0: 0000 803f 0000 803f 0000 803f 0000 803f

encoder.2.partial_conv.bn.weight f4 [72]
1.0001926 1.0017029 1.0011413 1.0018061 0.99915767 1.0013869 1.0011247 1.001391
1.0016463 1.0007069 1.0013547 1.0016365 1.0018429 1.0003309 1.001738 1.0015625
1.001085 0.99994373 0.9995997 1.0016745 0.9989549 1.0017699 1.0018777 1.001636
1.0014161 1.0017623 1.0003761 1.001725 1.0016071 0.9983731 0.99831295 1.0017942
1.0017138 0.99876255 1.0015769 0.99975616 0.99853045 1.0010352 1.0018595 1.0000299
1.0016694 1.0017582 1.0014434 1.0015756 0.999792 1.0016198 0.99938726 1.0000585
0.9995168 1.0011768 0.9992195 0.9999742 0.998085 1.0001503 1.0017778 1.0014176
0.9990439 1.0012265 1.0004134 1.001981 1.0007613 1.0006936 0.99997574 1.0019124
1.0015237 0.99894553 0.99831647 1.0003498 0.9992212 1.0013431 1.0001338 1.0012223
00000000: 5006 803f cd37 803f 6625 803f 2f3b 803f
00000010: ccc8 7f3f 722d 803f db24 803f 952d 803f
00000020: f235 803f 2a17 803f 642c 803f a035 803f
00000030: 633c 803f d80a 803f f338 803f 3333 803f
00000040: 8e23 803f 50fc 7f3f c4e5 7f3f df36 803f
00000050: 82bb 7f3f ff39 803f 873d 803f 9c35 803f
00000060: 672e 803f bf39 803f 530c 803f 8638 803f
00000070: a934 803f 6195 7f3f 7091 7f3f cb3a 803f
00000080: 2838 803f e7ae 7f3f ac33 803f 05f0 7f3f
00000090: b19f 7f3f ec21 803f ef3c 803f fb00 803f
000000a0: b436 803f 9d39 803f 4c2f 803f a133 803f
000000b0: 5ef2 7f3f 1435 803f d8d7 7f3f eb01 803f
000000c0: 55e0 7f3f 9026 803f d9cc 7f3f 4ffe 7f3f
000000d0: 8082 7f3f ed04 803f 413a 803f 742e 803f
000000e0: 57c1 7f3f 3128 803f 8c0d 803f ea40 803f
000000f0: f218 803f ba16 803f 69fe 7f3f aa3e 803f
00000100: ee31 803f e5ba 7f3f ab91 7f3f 760b 803f
00000110: f6cc 7f3f 032c 803f 6204 803f 0d28 803f

encoder.2.partial_conv.bn.bias f4 [72]
-0.00031205112 0.0018202648 0.0018461285 0.001956874 -0.0015937886 0.001328746 0.00092736573 0.0009689556
0.0016498159 0.0014107515 0.0016318989 0.0019198196 0.0020008923 0.0015450197 0.0013531264 0.0018911285
0.0017736102 6.963017e-05 -0.00114049 0.0018708548 -0.0006023235 0.0018093581 0.0014858745 0.0013844415
0.001743782 0.0013227672 -0.00069760473 0.0018508903 -0.0007102741 -0.0019451578 -0.0017095136 0.0019092977
0.0015994736 -0.00037331908 0.001852498 0.0014932423 -0.0013533549 0.0019140738 0.0018910265 1.6549486e-05
0.0010076367 0.0018783808 0.0018284122 0.0016594953 -8.256678e-05 0.0018568808 0.00034764392 -0.00015043574
0.0008160821 -0.00017923117 -0.0018696622 0.0015711716 -0.0019002453 -0.0011198445 0.0018867834 5.382804e-05
-0.0015346633 0.0019393007 -0.0011278797 0.0019503145 0.001781253 3.3715252e-05 -0.0017044869 0.0018306576
0.0008543524 -0.0018410609 -0.0018471136 0.0007570393 0.0014310939 0.0017490486 0.00083006313 0.0018157344
00000000: cb9a a3b9 f495 ee3a cbf9 f13a e63e 003b
00000010: ace6 d0ba 5129 ae3a 761a 733a 8201 7e3a
00000020: a33e d83a f7e8 b83a 71e5 d53a 75a2 fb3a
00000030: 6721 033b 4282 ca3a 635b b13a bedf f73a
00000040: 7c78 e83a 6a06 9238 7f7c 95ba 7837 f53a
00000050: 3fe5 1dba fc27 ed3a adc1 c23a 2676 b53a
00000060: 9d8f e43a b460 ad3a 76df 36ba 9399 f23a
00000070: b031 3aba aaf4 feba c211 e0ba 6641 fa3a
00000080: 6ea5 d13a 0aba c3b9 85cf f23a e6b8 c33a
00000090: 0e63 b1ba a9e1 fa3a 52dc f73a c0d3 8a37
000000a0: ad12 843a 0034 f63a 55a7 ef3a 6c83 d93a
000000b0: b427 adb8 9562 f33a fa43 b639 49be 1db9
000000c0: 58ee 553a 00f0 3bb9 740f f5ba c5ef cd3a
000000d0: a711 f9ba bfc7 92ba f24d f73a 6bc5 6138
000000e0: c126 c9ba 2230 fe3a 5dd5 93ba b2a1 ff3a
000000f0: ef78 e93a 7a69 0d38 1769 dfba adf2 ef3a
00000100: 9ef6 5f3a c14f f1ba d91a f2ba 0c74 463a
00000110: 8b93 bb3a 5540 e53a 9898 593a f0fd ed3a

encoder.2.partial_conv.bn.running_mean f4 [72]
-0.00014881518 0.00017051787 -0.00017704527 -0.00027751885 -0.00073714333 -0.00020596318 -0.00013099804 0.000594863
-0.00076460955 0.00064451975 0.0003722686 -0.00023995164 -0.00014849656 0.00079021853 0.00022768455 0.0003252466
0.00041866067 -1.0436425e-05 0.0010269018 0.0004547221 -0.00079960545 0.00010016618 0.0003861266 0.0007312932
-5.1559855e-05 -0.00023189152 -0.0002928478 0.00037483053 0.00031914446 -0.00033693074 -0.00026288108 -0.0005565592
0.00031254176 0.0004095997 -0.00033379887 4.309845e-06 0.0004457979 -0.0005265811 0.0005518435 -0.00025409844
0.00052588276 -0.00014969963 0.0006520672 -0.00032613426 -0.0008418214 -0.00013995521 0.00026426645 0.0007497882
0.00019264566 -0.00052789686 3.0792336e-05 0.00076084177 0.00035210885 6.969217e-05 0.00015514104 0.00059451774
-3.3654533e-06 -0.00046119172 0.00020875855 0.0011152804 0.000354842 -0.00026816738 -4.9422495e-05 -9.2983995e-05
0.0004966439 -0.00073718233 -0.000590379 -0.00028576958 -0.00014565885 0.0006824744 0.00049528584 0.0004158763
00000000: 450b 1cb9 0bcd 3239 3aa5 39b9 f37f 91b9
00000010: da3c 41ba d2f7 57b9 855c 09b9 95f0 1b3a
00000020: 1470 48ba fdf4 283a 0c2d c339 879b 7bb9
00000030: beb5 1bb9 ab26 4f3a 9bbe 6e39 dc85 aa39
00000040: af7f db39 1b18 2fb7 1b99 863a c467 ee39
00000050: 9d9c 51ba 4f10 d238 0971 ca39 42b4 3f3a
00000060: f941 58b8 e827 73b9 5e89 99b9 e784 c439
00000070: d852 a739 14a6 b0b9 4dd3 89b9 0ee6 11ba
00000080: a5dc a339 8bbf d639 ba01 afb9 499d 9036
00000090: fbb9 e939 420a 0aba 97a9 103a 8438 85b9
000000a0: 65db 093a b0f8 1cb9 7def 2a3a 00fd aab9
000000b0: aead 5cba f1c0 12b9 3e8d 8a39 6f8d 443a
000000c0: ed00 4a39 8f62 0aba 0527 0138 3a73 473a
000000d0: 409b b839 b327 9238 5bad 2239 69d9 1b3a
000000e0: 0cda 61b6 1bcc f1b9 32e6 5a39 9a2e 923a
000000f0: 160a ba39 d198 8cb9 004b 4fb8 6700 c3b8
00000100: 3531 023a 783f 41ba aac3 1aba 58d3 95b9
00000110: 00bc 18b9 15e8 323a 12d6 013a f909 da39

encoder.2.partial_conv.bn.running_var f4 [72]
0.34868225 0.3486814 0.34868118 0.3486833 0.34868503 0.34868157 0.3486804 0.3486824
0.34868386 0.34868434 0.34868112 0.34868115 0.34868363 0.34868354 0.34868145 0.3486802
0.34868187 0.34868118 0.34868664 0.34868333 0.34868276 0.34868228 0.34868348 0.3486853
0.34868056 0.34868407 0.34868166 0.34868154 0.3486813 0.34868369 0.34868258 0.34868538
0.34868172 0.3486818 0.34868088 0.34868133 0.34868085 0.34868127 0.3486818 0.34868044
0.34868723 0.34868154 0.34868324 0.34868106 0.3486845 0.3486811 0.3486818 0.3486899
0.34868187 0.34868494 0.34868243 0.3486861 0.34868172 0.34868115 0.3486849 0.34867987
0.34868017 0.34868333 0.3486821 0.34868532 0.34868187 0.34868255 0.34868085 0.34868026
0.34868088 0.34868312 0.34868225 0.3486833 0.3486844 0.34868422 0.34868136 0.3486821
00000000: 7b86 b23e 5e86 b23e 5786 b23e 9e86 b23e
00000010: d886 b23e 6486 b23e 3d86 b23e 8086 b23e
00000020: b186 b23e c186 b23e 5586 b23e 5686 b23e
00000030: a986 b23e a686 b23e 6086 b23e 3686 b23e
00000040: 6e86 b23e 5786 b23e 0e87 b23e 9f86 b23e
00000050: 8c86 b23e 7c86 b23e a486 b23e e186 b23e
00000060: 4286 b23e b886 b23e 6786 b23e 6386 b23e
00000070: 5b86 b23e ab86 b23e 8686 b23e e486 b23e
00000080: 6986 b23e 6c86 b23e 4d86 b23e 5c86 b23e
00000090: 4c86 b23e 5a86 b23e 6c86 b23e 3e86 b23e
000000a0: 2287 b23e 6386 b23e 9c86 b23e 5386 b23e
000000b0: c686 b23e 5486 b23e 6c86 b23e 7c87 b23e
000000c0: 6e86 b23e d586 b23e 8186 b23e fc86 b23e
000000d0: 6986 b23e 5686 b23e d486 b23e 2b86 b23e
000000e0: 3586 b23e 9f86 b23e 7686 b23e e286 b23e
000000f0: 6e86 b23e 8586 b23e 4c86 b23e 3886 b23e
00000100: 4d86 b23e 9886 b23e 7b86 b23e 9e86 b23e
00000110: c386 b23e bd86 b23e 5d86 b23e 7686 b23e
